…
snapshot: 5000
snapshot_prefix: "examples/mnist/lenet"
solver_mode: GPU
device_id: 0
net: "examples/mnist/lenet.prototxt"
train_state {
  level: 0
  stage: ""
}
I0104 21:55:52.074643 30510 solver.cpp:91] Creating training net from net file: examples/mnist/lenet.prototxt
I0104 21:55:52.074987 30510 net.cpp:58] Initializing net from parameters: 
name: "LeNet"
state {
  phase: TRAIN
  level: 0
  stage: ""
}
layer {
  name: "data"
  type: "Input"
  top: "data"
  input_param {
    shape {
      dim: 64
      dim: 1
      dim: 28
      dim: 28
    }
  }
}
layer {
  name: "conv1"
  type: "Convolution"
  bottom: "data"
  top: "conv1"
  param {
    lr_mult: 1
  }
  param {
    lr_mult: 2
  }
  convolution_param {
    num_output: 20
    kernel_size: 5
    stride: 1
    weight_filler {
      type: "xavier"
    }
    bias_filler {
      type: "constant"
    }
    blockdim_x: 10
    blockdim_y: 10
    bitlevel: 2
  }
}
layer {
  name: "pool1"
  type: "Pooling"
  bottom: "conv1"
  top: "pool1"
  pooling_param {
    pool: MAX
    kernel_size: 2
    stride: 2
  }
}
layer {
  name: "conv2"
  type: "Convolution"
  bottom: "pool1"
  top: "conv2"
  param {
    lr_mult: 1
  }
  param {
    lr_mult: 2
  }
  convolution_param {
    num_output: 50
    kernel_size: 5
    stride: 1
    weight_filler {
      type: "xavier"
    }
    bias_filler {
      type: "constant"
    }
    blockdim_x: 10
    blockdim_y: 10
    bitlevel: 2
  }
}
layer {
  name: "pool2"
  type: "Pooling"
  bottom: "conv2"
  top: "pool2"
  pooling_param {
    pool: MAX
    kernel_size: 2
    stride: 2
  }
}
layer {
  name: "ip1"
  type: "InnerProduct"
  bottom: "pool2"
  top: "ip1"
  param {
    lr_mult: 1
  }
  param {
    lr_mult: 2
  }
  inner_product_param {
    num_output: 500
    weight_filler {
      type: "xavier"
    }
    bias_filler {
      type: "constant"
    }
  }
}
layer {
  name: "relu1"
  type: "ReLU"
  bottom: "ip1"
  top: "ip1"
}
layer {
  name: "ip2"
  type: "InnerProduct"
  bottom: "ip1"
  top: "ip2"
  param {
    lr_mult: 1
  }
  param {
    lr_mult: 2
  }
  inner_product_param {
    num_output: 10
    weight_filler {
      type: "xavier"
    }
    bias_filler {
      type: "constant"
    }
  }
}
layer {
  name: "prob"
  type: "Softmax"
  bottom: "ip2"
  top: "prob"
}
I0104 21:55:52.075045 30510 layer_factory.hpp:77] Creating layer data
I0104 21:55:52.075057 30510 net.cpp:100] Creating Layer data
I0104 21:55:52.075067 30510 net.cpp:408] data -> data
I0104 21:55:52.087275 30510 net.cpp:150] Setting up data
I0104 21:55:52.087307 30510 net.cpp:157] Top shape: 64 1 28 28 (50176)
I0104 21:55:52.087312 30510 net.cpp:165] Memory required for data: 200704
I0104 21:55:52.087321 30510 layer_factory.hpp:77] Creating layer conv1
I0104 21:55:52.087338 30510 net.cpp:100] Creating Layer conv1
I0104 21:55:52.087344 30510 net.cpp:434] conv1 <- data
I0104 21:55:52.087352 30510 net.cpp:408] conv1 -> conv1
I0104 21:55:52.088587 30510 net.cpp:150] Setting up conv1
I0104 21:55:52.088600 30510 net.cpp:157] Top shape: 64 20 24 24 (737280)
I0104 21:55:52.088604 30510 net.cpp:165] Memory required for data: 3149824
I0104 21:55:52.088618 30510 layer_factory.hpp:77] Creating layer pool1
I0104 21:55:52.088625 30510 net.cpp:100] Creating Layer pool1
I0104 21:55:52.088630 30510 net.cpp:434] pool1 <- conv1
I0104 21:55:52.088634 30510 net.cpp:408] pool1 -> pool1
I0104 21:55:52.088670 30510 net.cpp:150] Setting up pool1
I0104 21:55:52.088675 30510 net.cpp:157] Top shape: 64 20 12 12 (184320)
I0104 21:55:52.088678 30510 net.cpp:165] Memory required for data: 3887104
I0104 21:55:52.088682 30510 layer_factory.hpp:77] Creating layer conv2
I0104 21:55:52.088690 30510 net.cpp:100] Creating Layer conv2
I0104 21:55:52.088698 30510 net.cpp:434] conv2 <- pool1
I0104 21:55:52.088704 30510 net.cpp:408] conv2 -> conv2
I0104 21:55:52.089682 30510 net.cpp:150] Setting up conv2
I0104 21:55:52.089695 30510 net.cpp:157] Top shape: 64 50 8 8 (204800)
I0104 21:55:52.089699 30510 net.cpp:165] Memory required for data: 4706304
I0104 21:55:52.089706 30510 layer_factory.hpp:77] Creating layer pool2
I0104 21:55:52.089714 30510 net.cpp:100] Creating Layer pool2
I0104 21:55:52.089717 30510 net.cpp:434] pool2 <- conv2
I0104 21:55:52.089722 30510 net.cpp:408] pool2 -> pool2
I0104 21:55:52.089745 30510 net.cpp:150] Setting up pool2
I0104 21:55:52.089751 30510 net.cpp:157] Top shape: 64 50 4 4 (51200)
I0104 21:55:52.089754 30510 net.cpp:165] Memory required for data: 4911104
I0104 21:55:52.089757 30510 layer_factory.hpp:77] Creating layer ip1
I0104 21:55:52.089766 30510 net.cpp:100] Creating Layer ip1
I0104 21:55:52.089769 30510 net.cpp:434] ip1 <- pool2
I0104 21:55:52.089773 30510 net.cpp:408] ip1 -> ip1
I0104 21:55:52.092255 30510 net.cpp:150] Setting up ip1
I0104 21:55:52.092267 30510 net.cpp:157] Top shape: 64 500 (32000)
I0104 21:55:52.092272 30510 net.cpp:165] Memory required for data: 5039104
I0104 21:55:52.092279 30510 layer_factory.hpp:77] Creating layer relu1
I0104 21:55:52.092288 30510 net.cpp:100] Creating Layer relu1
I0104 21:55:52.092291 30510 net.cpp:434] relu1 <- ip1
I0104 21:55:52.092296 30510 net.cpp:395] relu1 -> ip1 (in-place)
I0104 21:55:52.092303 30510 net.cpp:150] Setting up relu1
I0104 21:55:52.092308 30510 net.cpp:157] Top shape: 64 500 (32000)
I0104 21:55:52.092311 30510 net.cpp:165] Memory required for data: 5167104
I0104 21:55:52.092314 30510 layer_factory.hpp:77] Creating layer ip2
I0104 21:55:52.092320 30510 net.cpp:100] Creating Layer ip2
I0104 21:55:52.092324 30510 net.cpp:434] ip2 <- ip1
I0104 21:55:52.092329 30510 net.cpp:408] ip2 -> ip2
I0104 21:55:52.093155 30510 net.cpp:150] Setting up ip2
I0104 21:55:52.093168 30510 net.cpp:157] Top shape: 64 10 (640)
I0104 21:55:52.093170 30510 net.cpp:165] Memory required for data: 5169664
I0104 21:55:52.093176 30510 layer_factory.hpp:77] Creating layer prob
I0104 21:55:52.093183 30510 net.cpp:100] Creating Layer prob
I0104 21:55:52.093188 30510 net.cpp:434] prob <- ip2
I0104 21:55:52.093192 30510 net.cpp:408] prob -> prob
I0104 21:55:52.093231 30510 net.cpp:150] Setting up prob
I0104 21:55:52.093237 30510 net.cpp:157] Top shape: 64 10 (640)
I0104 21:55:52.093240 30510 net.cpp:165] Memory required for data: 5172224
I0104 21:55:52.093243 30510 net.cpp:228] prob does not need backward computation.
I0104 21:55:52.093247 30510 net.cpp:228] ip2 does not need backward computation.
I0104 21:55:52.093250 30510 net.cpp:228] relu1 does not need backward computation.
I0104 21:55:52.093253 30510 net.cpp:228] ip1 does not need backward computation.
I0104 21:55:52.093256 30510 net.cpp:228] pool2 does not need backward computation.
I0104 21:55:52.093260 30510 net.cpp:228] conv2 does not need backward computation.
I0104 21:55:52.093262 30510 net.cpp:228] pool1 does not need backward computation.
I0104 21:55:52.093266 30510 net.cpp:228] conv1 does not need backward computation.
I0104 21:55:52.093269 30510 net.cpp:228] data does not need backward computation.
I0104 21:55:52.093271 30510 net.cpp:270] This network produces output prob
I0104 21:55:52.093281 30510 net.cpp:283] Network initialization done.
I0104 21:55:52.093471 30510 solver.cpp:181] Creating test net (#0) specified by net file: examples/mnist/lenet.prototxt
I0104 21:55:52.093544 30510 net.cpp:58] Initializing net from parameters: 
name: "LeNet"
state {
  phase: TEST
}
layer {
  name: "data"
  type: "Input"
  top: "data"
  input_param {
    shape {
      dim: 64
      dim: 1
      dim: 28
      dim: 28
    }
  }
}
layer {
  name: "conv1"
  type: "Convolution"
  bottom: "data"
  top: "conv1"
  param {
    lr_mult: 1
  }
  param {
    lr_mult: 2
  }
  convolution_param {
    num_output: 20
    kernel_size: 5
    stride: 1
    weight_filler {
      type: "xavier"
    }
    bias_filler {
      type: "constant"
    }
    blockdim_x: 10
    blockdim_y: 10
    bitlevel: 2
  }
}
layer {
  name: "pool1"
  type: "Pooling"
  bottom: "conv1"
  top: "pool1"
  pooling_param {
    pool: MAX
    kernel_size: 2
    stride: 2
  }
}
layer {
  name: "conv2"
  type: "Convolution"
  bottom: "pool1"
  top: "conv2"
  param {
    lr_mult: 1
  }
  param {
    lr_mult: 2
  }
  convolution_param {
    num_output: 50
    kernel_size: 5
    stride: 1
    weight_filler {
      type: "xavier"
    }
    bias_filler {
      type: "constant"
    }
    blockdim_x: 10
    blockdim_y: 10
    bitlevel: 2
  }
}
layer {
  name: "pool2"
  type: "Pooling"
  bottom: "conv2"
  top: "pool2"
  pooling_param {
    pool: MAX
    kernel_size: 2
    stride: 2
  }
}
layer {
  name: "ip1"
  type: "InnerProduct"
  bottom: "pool2"
  top: "ip1"
  param {
    lr_mult: 1
  }
  param {
    lr_mult: 2
  }
  inner_product_param {
    num_output: 500
    weight_filler {
      type: "xavier"
    }
    bias_filler {
      type: "constant"
    }
  }
}
layer {
  name: "relu1"
  type: "ReLU"
  bottom: "ip1"
  top: "ip1"
}
layer {
  name: "ip2"
  type: "InnerProduct"
  bottom: "ip1"
  top: "ip2"
  param {
    lr_mult: 1
  }
  param {
    lr_mult: 2
  }
  inner_product_param {
    num_output: 10
    weight_filler {
      type: "xavier"
    }
    bias_filler {
      type: "constant"
    }
  }
}
layer {
  name: "prob"
  type: "Softmax"
  bottom: "ip2"
  top: "prob"
}
I0104 21:55:52.093583 30510 layer_factory.hpp:77] Creating layer data
I0104 21:55:52.093591 30510 net.cpp:100] Creating Layer data
I0104 21:55:52.093595 30510 net.cpp:408] data -> data
I0104 21:55:52.093616 30510 net.cpp:150] Setting up data
I0104 21:55:52.093623 30510 net.cpp:157] Top shape: 64 1 28 28 (50176)
I0104 21:55:52.093626 30510 net.cpp:165] Memory required for data: 200704
I0104 21:55:52.093629 30510 layer_factory.hpp:77] Creating layer conv1
I0104 21:55:52.093636 30510 net.cpp:100] Creating Layer conv1
I0104 21:55:52.093641 30510 net.cpp:434] conv1 <- data
I0104 21:55:52.093646 30510 net.cpp:408] conv1 -> conv1
I0104 21:55:52.093789 30510 net.cpp:150] Setting up conv1
I0104 21:55:52.093796 30510 net.cpp:157] Top shape: 64 20 24 24 (737280)
I0104 21:55:52.093799 30510 net.cpp:165] Memory required for data: 3149824
I0104 21:55:52.093807 30510 layer_factory.hpp:77] Creating layer pool1
I0104 21:55:52.093812 30510 net.cpp:100] Creating Layer pool1
I0104 21:55:52.093816 30510 net.cpp:434] pool1 <- conv1
I0104 21:55:52.093821 30510 net.cpp:408] pool1 -> pool1
I0104 21:55:52.093843 30510 net.cpp:150] Setting up pool1
I0104 21:55:52.093849 30510 net.cpp:157] Top shape: 64 20 12 12 (184320)
I0104 21:55:52.093852 30510 net.cpp:165] Memory required for data: 3887104
I0104 21:55:52.093855 30510 layer_factory.hpp:77] Creating layer conv2
I0104 21:55:52.093861 30510 net.cpp:100] Creating Layer conv2
I0104 21:55:52.093864 30510 net.cpp:434] conv2 <- pool1
I0104 21:55:52.093869 30510 net.cpp:408] conv2 -> conv2
I0104 21:55:52.094107 30510 net.cpp:150] Setting up conv2
I0104 21:55:52.094115 30510 net.cpp:157] Top shape: 64 50 8 8 (204800)
I0104 21:55:52.094117 30510 net.cpp:165] Memory required for data: 4706304
I0104 21:55:52.094123 30510 layer_factory.hpp:77] Creating layer pool2
I0104 21:55:52.094128 30510 net.cpp:100] Creating Layer pool2
I0104 21:55:52.094132 30510 net.cpp:434] pool2 <- conv2
I0104 21:55:52.094136 30510 net.cpp:408] pool2 -> pool2
I0104 21:55:52.094159 30510 net.cpp:150] Setting up pool2
I0104 21:55:52.094166 30510 net.cpp:157] Top shape: 64 50 4 4 (51200)
I0104 21:55:52.094168 30510 net.cpp:165] Memory required for data: 4911104
I0104 21:55:52.094172 30510 layer_factory.hpp:77] Creating layer ip1
I0104 21:55:52.094177 30510 net.cpp:100] Creating Layer ip1
I0104 21:55:52.094179 30510 net.cpp:434] ip1 <- pool2
I0104 21:55:52.094184 30510 net.cpp:408] ip1 -> ip1
I0104 21:55:52.096686 30510 net.cpp:150] Setting up ip1
I0104 21:55:52.096699 30510 net.cpp:157] Top shape: 64 500 (32000)
I0104 21:55:52.096704 30510 net.cpp:165] Memory required for data: 5039104
I0104 21:55:52.096710 30510 layer_factory.hpp:77] Creating layer relu1
I0104 21:55:52.096716 30510 net.cpp:100] Creating Layer relu1
I0104 21:55:52.096725 30510 net.cpp:434] relu1 <- ip1
I0104 21:55:52.096735 30510 net.cpp:395] relu1 -> ip1 (in-place)
I0104 21:55:52.096741 30510 net.cpp:150] Setting up relu1
I0104 21:55:52.096745 30510 net.cpp:157] Top shape: 64 500 (32000)
I0104 21:55:52.096748 30510 net.cpp:165] Memory required for data: 5167104
I0104 21:55:52.096751 30510 layer_factory.hpp:77] Creating layer ip2
I0104 21:55:52.096756 30510 net.cpp:100] Creating Layer ip2
I0104 21:55:52.096760 30510 net.cpp:434] ip2 <- ip1
I0104 21:55:52.096765 30510 net.cpp:408] ip2 -> ip2
I0104 21:55:52.096849 30510 net.cpp:150] Setting up ip2
I0104 21:55:52.096855 30510 net.cpp:157] Top shape: 64 10 (640)
I0104 21:55:52.096859 30510 net.cpp:165] Memory required for data: 5169664
I0104 21:55:52.096864 30510 layer_factory.hpp:77] Creating layer prob
I0104 21:55:52.096869 30510 net.cpp:100] Creating Layer prob
I0104 21:55:52.096873 30510 net.cpp:434] prob <- ip2
I0104 21:55:52.096878 30510 net.cpp:408] prob -> prob
I0104 21:55:52.096913 30510 net.cpp:150] Setting up prob
I0104 21:55:52.096918 30510 net.cpp:157] Top shape: 64 10 (640)
I0104 21:55:52.096921 30510 net.cpp:165] Memory required for data: 5172224
I0104 21:55:52.096925 30510 net.cpp:228] prob does not need backward computation.
I0104 21:55:52.096927 30510 net.cpp:228] ip2 does not need backward computation.
I0104 21:55:52.096931 30510 net.cpp:228] relu1 does not need backward computation.
I0104 21:55:52.096935 30510 net.cpp:228] ip1 does not need backward computation.
…
